scripts/hand-gesture-stuff/model/keypoint_classifier/keypoint_classifier.tflite (tflite, 6616 bytes, 6 tensors)

sequential_1/dense_5/BiasAdd/ReadVariableOp f4 [5]
-0.24636747 -0.43220666 0.37338725 0.09441048 0.25943366
00000000: c147 7cbe 314a ddbe 9d2c bf3e 485a c13d
00000010: 7dd4 843e

sequential_1/dense_4/BiasAdd/ReadVariableOp f4 [10]
0.19715957 0.5020148 0.15931402 0.14280353 0.010352341 0.11405433 -0.089728326 1.0700172
0.36257383 0.4587945
00000000: 33e4 493e 0b84 003f 3723 233e 173b 123e
00000010: de9c 293c 5195 e93d 7cc3 b7bd 53f6 883f
00000020: 47a3 b93e 1de7 ea3e

sequential_1/dense_3/BiasAdd/ReadVariableOp f4 [20]
-0.7975806 -0.26468033 -0.5946956 -0.35853577 -0.7163557 -0.28140357 -0.86429006 -0.63387483
-0.52420735 -0.23244317 -0.44798177 -0.7924917 -0.39260694 -0.37455344 -0.4262042 -0.46068528
-0.4382243 -0.3673287 -0.6463892 -0.5124637
00000000: 3e2e 4cbf 2e84 87be f93d 18bf 0092 b7be
00000010: 1663 37bf 2114 90be 1d42 5dbf 9f45 22bf
00000020: 7432 06bf 9505 6ebe de5d e5be bce0 4abf
00000030: c703 c9be 78c5 bfbe 7037 dabe f1de ebbe
00000040: ef5e e0be 8212 bcbe c379 25bf d230 03bf

sequential_1/dense_3/MatMul f4 [20, 42]
0.19274169 -0.19370635 0.020933785 -0.5070708 0.20028262 -0.40794867 0.23016208 -0.5108511
0.013361082 -0.12834635 0.14943014 -0.08733877 0.029721467 -0.024220258 -0.079613976 0.09630377
-0.11667445 0.1483493 0.12229943 -0.11621107 0.06721214 -0.047091052 -0.029028218 0.08521867
-0.075452566 0.088335134 0.04663355 -0.18506067 0.078040674 -0.08499221 0.0027715256 0.107043445
0.0058595156 0.06452181 0.0043025943 -0.4188957 0.04794048 -0.39251325 0.012503472 -0.016976308
0.011643452 0.023948016 -0.2315628 -0.27864796 -0.08001812 -0.080185026 -0.09893864 -0.12201512
-0.054256383 0.07134024 -0.04711608 0.080080025 0.044698756 -0.009519705 -0.0025923492 0.001458519
0.0053872857 0.0032252248 0.025366563 0.015482475 0.056891493 0.03557496 -0.027886841 0.0613113
-0.025482249 0.042916033 0.068255484 0.029990038 0.075348586 0.074805476 -0.049094237 0.13261248
0.013409097 0.15529615 0.3138364 0.12984957 0.08110548 0.15821667 -0.120333456 0.121662475
-0.19222082 0.09810688 -0.16099165 -1.6882485 -0.23319021 -0.30922678 -0.5408238 -0.47026765
-0.15636599 -0.33567867 -0.17065896 -0.11815033 -0.17029127 -0.65106434 -0.20801799 -0.02406634
-0.16411133 -0.005941009 -0.03433721 0.18559985 0.045390908 0.27660128 -0.24607207 -0.027959825
-0.12345171 -0.06379615 -0.13141464 0.11240476 -0.33697963 0.10626921 0.0032022526 0.07792377
0.09475708 -0.121012814 -0.09543402 -0.6307608 -0.33724168 -0.71189225 0.31580693 0.24321762
0.33745494 0.17730948 0.069007196 0.20125988 -0.32824305 0.31234643 -0.25529385 0.29206413
-0.14355205 0.3871854 -0.023597876 0.11421987 0.019040061 0.08554509 -0.00907114 -0.031756245
-0.19013132 -0.002151471 0.027713245 0.024297183 0.1297853 0.04250217 0.12539501 0.071438044
-0.17279205 -0.037752714 -0.034720253 0.051972825 0.02387268 0.10156059 -0.039189823 0.12140388
-0.17653544 -0.039522067 0.025726978 0.07577003 -0.0984343 -0.016919117 -0.3038901 -1.6847347
-0.01880083 -0.008649329 -0.007809823 0.080036014 0.0775238 0.16227996 -0.042488754 0.16939987
0.2741499 0.13383725 0.7422611 0.24354191 0.52624947 0.101778045 0.50269616 0.022153152
0.26011282 -0.3385655 0.17321014 0.5127599 0.020764744 0.09890384 -0.19080107 0.03076704
-0.257696 0.07418572 0.27596158 0.25310478 0.018453233 0.03441014 0.06705541 -0.024628077
-0.014622511 -0.0028661587 0.29344568 -0.068724215 0.09348921 -0.106040046 0.038012374 -0.06853155
0.076097 -0.0635802 0.118156105 0.05715748 0.040895436 -0.055507023 -0.042022053 -0.016940197
-0.27484468 0.03047541 -0.061329618 0.042803705 0.4307188 -0.23700573 0.1719643 -0.017990744
-0.10885701 -0.057015825 -0.21488339 0.21845381 0.075159 0.20664962 0.023649305 0.03840902
-0.06338199 0.010159376 -0.0659143 0.03026381 0.17610525 0.1179378 0.016863707 0.03922236
-0.18364623 0.03127028 -0.3180584 -0.03907208 0.1549065 0.27361628 -0.02398334 -2.1487067e-06
-0.13684367 -0.18164316 -0.3320196 0.11553322 0.08736682 0.12303763 0.21565224 -0.027620574
0.38019735 -0.7280184 0.8357315 -0.467801 -0.17866874 0.197366 -0.41019127 -0.2807858
00000000: 145e 453e f55a 46be 547d ab3c 64cf 01bf
00000010: e316 4d3e a6de d0be 9caf 6b3e 23c7 02bf
00000020: 71e8 5a3c 3a6d 03be 3704 193e abde b2bd
00000030: 6f7a f33c 9069 c6bc a70c a3bd e93a c53d
00000040: 04f3 eebd e1e8 173e 2078 fa3d 1200 eebd
00000050: 85a6 893d 8ce2 40bd 96cc edbc 2087 ae3d
00000060: e086 9abd 0de9 b43d d202 3f3d 8b80 3dbe
00000070: cad3 9f3d 6510 aebd 7ca2 353b 9839 db3d
00000080: 2e01 c03b 0324 843d c7fc 8c3b 7f79 d6be
00000090: 3d5d 443d 7ff7 c8be 5ddb 4c3c e611 8bbc
000000a0: 2dc4 3e3c a12e c43c cc1e 6dbe f2aa 8ebe
000000b0: 8ae0 a3bd 0c38 a4bd 57a0 cabd 10e3 f9bd
000000c0: f13b 5ebd d51a 923d cafc 40bd ff00 a43d
000000d0: 0b16 373d 89f8 1bbc 67e4 29bb c72b bf3a
000000e0: d487 b03b 4b5e 533b 8acd cf3c 35aa 7d3c
000000f0: 0e07 693d 0db7 113d f272 e4bc 8f21 7b3d
00000100: 26c0 d0bc b9c8 2f3d 88c9 8b3d abad f53c
00000110: 5c50 9a3d 9d33 993d 0a17 49bd 91cb 073e
00000120: d4b1 5b3c f405 1f3e 2aaf a03e 49f7 043e
00000130: a11a a63d 8d03 223e 6371 f6bd 2d2a f93d
00000140: 89d5 44be 43ec c83d ffda 24be 8718 d8bf
00000150: 6ac9 6ebe f952 9ebe 6e73 0abf ecc6 f0be
00000160: 681e 20be 13de abbe 39c1 2ebe cdf8 f1bd
00000170: d660 2ebe 27ac 26bf ab02 55be c626 c5bc
00000180: cd0c 28be ccac c2bb 2da5 0cbd e30d 3e3e
00000190: d1eb 393d af9e 8d3e 51fa 7bbe 010c e5bc
000001a0: 40d4 fcbd 8ea7 82bd 8f91 06be 7834 e63d
000001b0: 9888 acbe aca3 d93d e2dc 513b 7f96 9f3d
000001c0: 0010 c23d 91d5 f7bd e972 c3bd 8a79 21bf
000001d0: f1aa acbe 923e 36bf 72b1 a13e 0a0e 793e
000001e0: e5c6 ac3e 9e90 353e a553 8d3d 1217 4e3e
000001f0: 790f a8be dfeb 9f3e e0b5 82be 6e89 953e
00000200: 4fff 12be 2a3d c63e 5550 c1bc 1bec e93d
00000210: e7f9 9b3c 4432 af3d 1e9f 14bc d612 02bd
00000220: c9b1 42be b2ff 0cbb e306 e33c e30a c73c
00000230: 70e6 043e c116 2e3d 8d67 003e 1c4e 923d
00000240: 66f0 30be 97a2 1abd d336 0ebd 75e1 543d
00000250: a390 c33c 00ff cf3d 8285 20bd 99a2 f83d
00000260: b5c5 34be e4e1 21bd 62c1 d23c 512d 9b3d
00000270: ec97 c9bd f699 8abc 7c97 9bbe 63a5 d7bf
00000280: 3304 9abc eab5 0dbc 8be9 ffbb ece9 a33d
00000290: ccc4 9e3d b82c 263e b008 2ebd 2977 2d3e
000002a0: 605d 8c3e a20c 093e d304 3e3f 0d63 793e
000002b0: 49b8 063f 0271 d03d b2b0 003f 877a b53c
000002c0: 822d 853e 7558 adbe 005e 313e 3c44 033f
000002d0: d31a aa3c 198e ca3d 5b61 43be 290b fc3c
000002e0: bbf0 83be afee 973d d64a 8d3e f396 813e
000002f0: 3c2b 973c a6f1 0c3d 5954 893d d2c0 c9bc
00000300: 4293 6fbc 2ad6 3bbb 833e 963e 48bf 8cbd
00000310: 4577 bf3d 862b d9bd ddb2 1b3d 455a 8cbd
00000320: bed8 9b3d 5636 82bd d4fb f13d f61d 6a3d
00000330: f981 273d 555b 63bd 511f 2cbd 2bc6 8abc
00000340: 71b8 8cbe 91a7 f93c c434 7bbd f052 2f3d
00000350: 2d87 dc3e a1b1 72be 6917 303e 5361 93bc
00000360: 6df0 debd 6d89 69bd 640a 5cbe 5bb2 5f3e
00000370: f6ec 993d f59b 533e 30bc c13c c752 1d3d
00000380: 6bce 81bd 8373 263c 14fe 86bd cfeb f73c
00000390: ef54 343e 6089 f13d c225 8a3c a0a7 203d
000003a0: c20d 3cbe 4415 003d 8dd8 a2be 0c0a 20bd
000003b0: cf9f 1e3e 6f17 8c3e b678 c4bc 8032 10b6
000003c0: bf20 0cbe aa00 3abe 79fe a9be ae9c ec3d
000003d0: 60ed b23d 27fb fb3d f1d3 5c3e 8b44 e2bc
000003e0: 3aa9 c23e 6a5f 3abf 80f2 553f 9d83 efbe
000003f0: f0f4 36be 501a 4a3e 9704 d2be 28c3 8fbe

sequential_1/dense_4/MatMul f4 [10, 20]
-0.8496512 -0.082007155 -0.08570103 0.7749242 -0.43544957 -0.35441712 0.755331 0.54970473
-0.1179454 0.5728731 0.3414828 0.67304033 -0.26702535 0.44677025 0.49131936 -0.45452592
-0.040938202 -0.035676476 -0.4515465 -0.19394292 0.1675461 1.2040172 0.14855969 0.1407018
-0.42064753 0.6583199 -0.12510271 -0.6707125 -0.4660529 0.34317878 0.15489475 -0.17337205
-0.5456418 -0.20200731 0.22722831 0.5164552 -0.090241 0.7069103 0.004250498 -0.12510307
-0.00029810343 0.11014452 0.5775291 1.222586 0.32814565 0.006209898 0.29197305 0.3857841
1.2837222 -0.38962448 -0.07831529 0.424995 0.7205866 -0.08383561 0.6691716 0.3587283
1.2509618 0.46891406 -0.0035153332 1.4467261 0.3493052 1.1928221 -0.89767087 0.9863838
0.22769822 0.59730357 0.7311555 -0.07152987 0.02544548 0.083911315 0.0018770805 0.39671335
-0.5161032 0.1812167 0.83944225 1.0257002 0.008228938 0.02631073 1.0442339 -0.110456884
1.2570322 -0.28507882 -0.07988434 -0.32847682 0.73665375 0.16905549 -0.5393114 -0.21368058
0.0983514 0.040175173 0.27562162 -0.8106696 0.060338773 -0.29701108 0.05989217 0.026574295
-0.15368198 -0.0048172018 -0.34781292 -0.16612816 -0.012941523 0.94859606 -0.18057626 0.54204977
-0.35559687 0.10527596 -0.2585415 -0.04432144 0.35655108 0.23421372 -0.0075989175 -0.053743057
0.42999524 0.03224761 0.64232594 0.9950193 0.32766178 0.621289 -0.34368443 0.4959506
0.4472595 0.03564228 0.841423 0.0394416 -0.121620536 0.19963785 0.8832592 0.257736
0.05369496 0.3642138 0.6228486 0.34393376 0.47630215 -0.3794129 0.2623595 0.34051672
0.058410298 0.39033285 0.41681665 0.015071697 -0.064093925 -0.93874186 -0.14204544 -0.5887402
-0.603302 -0.849264 -0.08954511 0.6482662 0.10119644 0.023067376 0.5552551 0.1750704
-0.64684534 0.27482527 -0.4195134 -0.34371233 0.36998552 -0.6121026 -0.0046795555 0.14946423
0.63803947 0.3351751 0.28541318 0.12506194 0.12437501 -0.31242144 0.6207319 0.49957392
-0.12828863 -0.07592629 0.712132 0.67139626 -0.10320962 0.64524317 0.016946668 -0.024388617
0.022131395 -0.004674778 0.63075376 -0.24352051 0.019199584 -0.06916648 0.6316482 0.46165267
0.20959868 -0.28200555 -0.49199742 -0.2631047 0.39299697 0.8857999 0.13149904 -0.21590316
0.42499328 0.3714773 0.49000195 -0.41350177 0.078462906 0.114006035 -0.2561788 0.43909562
00000000: be82 59bf 5ef3 a7bd 0684 afbd 6f61 463f
00000010: 3ff3 debe 2976 b5be 5f5d 413f 73b9 0c3f
00000020: 5c8d f1bd d0a7 123f d5d6 ae3e 5f4c 2c3f
00000030: 8cb7 88be 12bf e43e 368e fb3e 9fb7 e8be
00000040: d1ae 27bd 7f21 12bd 1a31 e7be f998 46be
00000050: 3491 2b3e 3c1d 9a3f 0820 183e 2214 103e
00000060: 1d5f d7be a787 283f ed1a 00be d0b3 2bbf
00000070: 7c9e eebe 21b5 af3e bb9c 1e3e 7188 31be
00000080: 2eaf 0bbf 01db 4ebe 8aae 683e 6836 043f
00000090: 46d0 b8bd 13f8 343f c347 8b3b 051b 00be
000000a0: c44a 9cb9 7393 e13d f2d8 133f b37d 9c3f
000000b0: b502 a83e 667c cb3b 7e7d 953e 7e85 c53e
000000c0: 0251 a43f dc7c c7be c463 a0bd f298 d93e
000000d0: 5d78 383f 01b2 abbd d44e 2b3f 3cab b73e
000000e0: 841f a03f 8115 f03e 8161 66bb 522e b93f
000000f0: 22d8 b23e 65ae 983f c2cd 65bf a683 7c3f
00000100: b929 693e e3e8 183f 022d 3b3f 417e 92bd
00000110: 0a73 d03c b2d9 ab3d 5f08 f63a 031e cb3e
00000120: 571f 04bf df90 393e b0e5 563f 254a 833f
00000130: abd2 063c 9a89 d73c 75a9 853f 3837 e2bd
00000140: 6ee6 a03f daf5 91be 679a a3bd 1d2e a8be
00000150: 5795 3c3f e21c 2d3e 5010 0abf 15cf 5abe
00000160: 756c c93d b98e 243d 471e 8d3e 0b88 4fbf
00000170: ca25 773d d611 98be 7e51 753d 56b2 d93c
00000180: cf5e 1dbe 9ed9 9dbb 8914 b2be 801d 2abe
00000190: af08 54bc 31d7 723f fce8 38be c6c3 0a3f
000001a0: cb10 b6be ec9a d73d 8d5f 84be 668a 35bd
000001b0: dd8d b63e b9d5 6f3e 5700 f9bb ae21 5cbd
000001c0: 5628 dc3e 1216 043d 796f 243f 96b9 7e3f
000001d0: 49c3 a73e cc0c 1f3f 68f7 afbe 3ded fd3e
000001e0: 32ff e43e a4fd 113d 7f67 573f 848d 213d
000001f0: 3014 f9bd dd6d 4c3e 461d 623f f9f5 833e
00000200: 3fef 5b3d 3b7a ba3e 0173 1f3f 1618 b03e
00000210: e0dd f33e 6842 c2be fc53 863e 3558 ae3e
00000220: a33f 6f3d b5d9 c73e fe68 d53e 47ef 763c
00000230: ad43 83bd 6351 70bf 5c74 11be aeb7 16bf
00000240: 0072 1abf 5e69 59bf 6d63 b7bd c6f4 253f
00000250: 1440 cf3d cbf7 bc3c 3325 0e3f a845 333e
00000260: a897 25bf e6b5 8c3e 76ca d6be 10fb afbe
00000270: be6e bd3e c2b2 1cbf f556 99bb 270d 193e
00000280: 8e56 233f 129c ab3e ad21 923e 3d10 003e
00000290: 53b8 fe3d b4f5 9fbe 49e8 1e3f 27c8 ff3e
000002a0: 185e 03be 3e7f 9bbd 484e 363f a0e0 2b3f
000002b0: 915f d3bd a82e 253f bdd3 8a3c a3ca c7bc
000002c0: e64c b53c e12e 99bb 1479 213f 715d 79be
000002d0: 7248 9d3c 28a7 8dbd b2b3 213f bd5d ec3e
000002e0: 09a1 563e 0863 90be 16e7 fbbe a9b5 86be
000002f0: e636 c93e c8c3 623f afa7 063e b815 5dbe
00000300: b898 d93e 4632 be3e 89e1 fa3e 81b6 d3be
00000310: 29b1 a03d ff7b e93d de29 83be 24d1 e03e

sequential_1/dense_5/MatMul f4 [5, 10]
0.36396125 0.36504242 0.80994564 0.27270418 -1.2937776 0.63363314 0.04102384 -1.3667597
-0.91522396 1.0227257 0.667615 -0.39267012 0.80566967 0.40321228 1.5089377 -0.51882213
0.87078667 -0.52098143 0.7211438 -0.33042473 0.43682045 0.18350723 -0.77429074 -0.8759285
-0.92810285 -1.0060169 -0.18313533 0.82963395 0.7186488 0.36491156 -0.38754743 1.0664432
-0.9341901 0.26958558 0.098389976 0.040377155 0.3171743 -0.5616679 0.5298916 -1.3040197
-0.95908695 -1.5618924 0.6626729 -2.1167107 -0.53931624 0.0046264254 -1.3058963 1.0186877
-0.9888548 0.41453832
00000000: 2159 ba3e d7e6 ba3e 9958 4f3f e29f 8b3e
00000010: 819a a5bf c835 223f 9d08 283d fbf1 aebf
00000020: 1e4c 6abf ade8 823f d1e8 2a3f 0f0c c9be
00000030: 5e40 4e3f d771 ce3e df24 c13f 87d1 04bf
00000040: e0eb 5e3f 0a5f 05bf e19c 383f 6e2d a9be
00000050: eea6 df3e 52e9 3b3e eb37 46bf da3c 60bf
00000060: 2698 6dbf 29c5 80bf d487 3bbe e462 543f
00000070: 5ef9 373f b0d5 ba3e 9e6c c6be 3681 883f
00000080: 1527 6fbf 1f07 8a3e af80 c93d 8462 253d
00000090: ab64 a23e 78c9 0fbf faa6 073f 1eea a6bf
000000a0: b986 75bf 17ec c7bf eea4 293f 3078 07c0
000000b0: a110 0abf 4599 973b 9c27 a7bf 5c64 823f
000000c0: 9725 7dbf 5e3e d43e
