hand-gesture-recognition-mediapipe/model/keypoint_classifier/keypoint_classifier.tflite (tflite, 6652 bytes, 6 tensors)

sequential_4/dense_14/BiasAdd/ReadVariableOp f4 [5]
-0.452933 -0.12311288 0.35087338 0.034292143 0.2705918
00000000: d6e6 e7be 9b22 fcbd ada5 b33e eb75 0c3d
00000010: 028b 8a3e

sequential_4/dense_13/BiasAdd/ReadVariableOp f4 [10]
0.3719507 0.32296562 0.03936468 0.53348005 0.3241929 0.025737021 -0.18577816 0.8433758
0.33759922 0.3735337
00000000: 5270 be3e c05b a53e dc3c 213d 2692 083f
00000010: 9dfc a53e 72d6 d23c a13c 3ebe 7ae7 573f
00000020: ced9 ac3e cf3f bf3e

sequential_4/dense_12/BiasAdd/ReadVariableOp f4 [20]
-0.3674555 -0.300393 -0.50661385 -0.3511064 -0.28747502 -0.4686576 -0.43268698 -0.3411938
-0.88453436 -0.28082585 -0.27079803 -0.5955178 -0.71334773 -0.8119836 -0.15584284 -0.74414384
-0.11790621 -0.33502385 -0.52754045 -0.61726224
00000000: 2123 bcbe 1ccd 99be 72b1 01bf 38c4 b3be
00000010: ed2f 93be e4f3 efbe 2689 ddbe f4b0 aebe
00000020: d870 62bf 68c8 8fbe 0aa6 8abe db73 18bf
00000030: f59d 36bf 28de 4fbf 4495 1fbe 3680 3ebf
00000040: d078 f1bd 3f88 abbe e40c 07bf e604 1ebf

sequential_4/dense_12/MatMul f4 [20, 42]
-0.013713777 0.081554264 0.19396459 0.3480422 0.18350475 -0.06924913 0.24929754 -0.27309877
0.2825767 -0.27040055 -0.046108 0.05984287 -0.016685758 0.027967699 -0.013079685 0.040654726
0.0021080696 0.019531988 -0.00056559144 0.022845695 0.0002636151 -0.06259309 -0.055494886 0.067695625
-0.39737657 0.23404433 0.13094938 -0.03868647 0.08298608 -0.18826099 -0.2930724 -0.20670462
-0.70856845 0.56091034 0.2693846 -0.0892248 0.1573805 -0.09771853 0.012236724 0.15998007
-0.31196272 0.538659 0.2608922 0.009448618 -0.055293456 -0.055436518 -0.20074722 -0.13882825
-0.34161696 -0.17107606 -0.43829072 -0.30550855 -0.049346767 0.09384917 -0.03954425 -0.06565835
-0.03798835 -0.09214554 0.0030637665 -0.25375685 -0.12148441 0.14014614 -0.010878366 -0.013479804
0.017674204 0.19105735 0.22912474 0.19808382 -0.2220136 0.12035906 0.021358201 -0.06825519
0.2312077 0.23878147 0.943855 0.85293 -0.29832494 0.08820797 -0.094478965 0.038539194
0.12707849 0.27969104 0.3041858 0.5442532 0.042057663 -0.04227215 -0.20468786 0.2831225
-0.2075434 0.23480554 0.0054553337 0.08626869 0.3821824 -0.01595404 -0.72415656 -0.36575046
-0.03267357 -0.10462426 0.045468573 -0.012628775 0.11742672 0.040855784 0.010635433 -0.4695644
-0.112930305 0.01217704 -0.038867578 0.112216756 -0.04415251 0.03342785 0.116598696 -0.38076833
0.12999956 0.058476824 0.011075542 0.01904511 0.00032294466 -0.06381822 0.4826581 -0.2320748
0.10983735 0.175 -0.039590027 0.17189515 -0.11619504 0.08336156 0.11251333 -0.10615599
-0.004784936 -0.061335586 -0.16658877 -0.039107516 -0.33686402 -0.100533925 -0.41448498 -0.15921226
0.16945294 0.111468196 0.03432573 0.05126665 -0.0555841 0.040143203 -0.086632766 0.013378195
0.13856259 0.13728742 0.022380415 0.01854547 0.24712273 -0.303148 0.5197085 0.254779
-0.013695433 0.08437458 0.0018095858 -0.07737139 0.38745078 -0.10752999 0.58281237 -0.38348174
-0.09461865 0.092980295 -0.06406054 0.01383852 0.037498478 -0.11010947 0.07182129 0.18045023
0.29537296 -0.05844727 0.038764946 0.462886 0.09249942 0.40149352 0.08742699 0.24792919
-0.08466118 0.07032275 0.03530671 0.027073482 0.0043304195 0.041222148 -0.004118617 0.11027599
0.0050493046 -0.0002861133 -0.013953064 -0.09121653 0.02487988 -0.13540184 0.10962865 -0.70112556
-0.10628698 -0.8791302 -0.0019715433 -0.101361565 -0.019550914 -0.026004218 -0.066430256 -0.015596668
0.17666 -0.53676933 0.0073474813 -0.055394147 -0.0604598 0.1868499 -0.030855887 0.3262004
-0.025119655 0.22657034 -0.026090056 0.20229995 -0.27040592 -0.43324313 -0.20818774 -0.08474192
0.02029647 0.003684167 0.14783542 -0.19691338 0.61780506 -0.18581368 0.15940657 -0.16667901
-0.04707127 0.051473666 -0.055866417 0.08145989 0.60963744 -0.12726797 -0.0028978 0.0071886266
-0.27072844 0.19524202 -0.3057017 0.1291453 0.5545989 -0.1397209 0.15693231 -0.14670828
-0.09935384 0.123723716 -0.12540655 0.082627535 0.6068675 -0.2954375 0.20891723 -0.061890163
-0.16915835 0.08477708 -0.26334143 0.10238203 -0.31083232 -0.14673525 -0.020281442 0.4021007
00000000: c0af 60bc ec05 a73d a79e 463e 9632 b23e
00000010: abe8 3b3e 7dd2 8dbd db47 7f3e 9ad3 8bbe
00000020: e5ad 903e f171 8abe bedb 3cbd cc1d 753d
00000030: 92b0 88bc 841c e53c 2d4c 56bc 9285 263d
00000040: 8a27 0a3b 8c01 a03c 3344 14ba e526 bb3c
00000050: d235 8a39 ce30 80bd 9b4e 63bd 01a4 8a3d
00000060: f174 cbbe 51a9 6f3e 9817 063e b475 1ebd
00000070: 9bf4 a93d 7dc7 40be 960d 96be 60aa 53be
00000080: be64 35bf d297 0f3f c7ec 893e 7ebb b6bd
00000090: 5b28 213e a720 c8bd 8a7c 483c d1d1 233e
000000a0: 94b9 9fbe 8ee5 093f aa93 853e 60ce 1a3c
000000b0: 647b 62bd 6711 63bd ae90 4dbe fe28 0ebe
000000c0: 6be8 aebe 902e 2fbe a467 e0be 9e6b 9cbe
000000d0: d61f 4abd fe33 c03d 27f9 21bd e377 86bd
000000e0: ac99 1bbd cdb6 bcbd 79c9 483b 6bec 81be
000000f0: d1cc f8bd 7882 0f3e 2d3b 32bc 65da 5cbc
00000100: 7ec9 903c 8aa4 433e ad9f 6a3e 7cd6 4a3e
00000110: 8857 63be d07e f63d 65f7 ae3c 61c9 8bbd
00000120: b6c1 6c3e 2183 743e 7ba0 713f 9f59 5a3f
00000130: 0cbe 98be 61a6 b43d 307e c1bd 46db 1d3d
00000140: dd20 023e aa33 8f3e 3ebe 9b3e 2d54 0b3f
00000150: a844 2c3d 9025 2dbd b299 51be 6ff5 903e
00000160: 4286 54be dd70 703e a8c2 b23b a4ad b03d
00000170: 69ad c33e 0cb2 82bc 5362 39bf a543 bbbe
00000180: b9d4 05bd 3e45 d6bd 413d 3a3d ece8 4ebc
00000190: 6c7d f03d 6558 273d 3d40 2e3c bf6a f0be
000001a0: 0148 e7bd 3582 473c 9c33 1fbd e6d1 e53d
000001b0: 43d9 34bd a4eb 083d 4ccb ee3d 11f4 c2be
000001c0: 9b1e 053e 6585 6f3d 3176 353c 7e04 9c3c
000001d0: e650 a939 20b3 82bd f61e f73e 04a5 6dbe
000001e0: 68f2 e03d 3333 333e 2729 22bd 4805 303e
000001f0: aaf7 edbd 77b9 aa3d 646d e63d 5068 d9bd
00000200: f4ca 9cbb 063b 7bbd 3f96 2abe 342f 20bd
00000210: 7179 acbe bbe4 cdbd 6037 d4be 8a08 23be
00000220: 1285 2d3e 7049 e43d 2399 0c3d fbfc 513d
00000230: 27ac 63bd 336d 243d 856c b1bd 3830 5b3c
00000240: 5ae3 0d3e 1395 0c3e 2257 b73c abec 973c
00000250: be0d 7d3e 3736 9bbe 9e0b 053f 6572 823e
00000260: cf62 60bc 94cc ac3d a02f ed3a e474 9ebd
00000270: f35f c63e af38 dcbd 3133 153f b857 c4be
00000280: 6cc7 c1bd 746c be3d 2c32 83bd f6ba 623c
00000290: 0198 193d 1381 e1bd 0a17 933d f2c7 383e
000002a0: 203b 973e 6866 6fbd fec7 1e3d 65ff ec3e
000002b0: 5670 bd3d 8f90 cd3e ec0c b33d 26e1 7d3e
000002c0: d762 adbd 6005 903d c59d 103d 35c9 dd3c
000002d0: 31e6 8d3b 8ed8 283d 77f5 86bb 61d8 e13d
000002e0: a374 a53b 7a01 96b9 649b 64bc bbcf babd
000002f0: e4d0 cb3c c8a6 0abe fc84 e03d f77c 33bf
00000300: fdac d9bd ad0e 61bf 0235 01bb a796 cfbd
00000310: 3d29 a0bc cc06 d5bc 960c 88bd 2b89 7fbc
00000320: 5ce6 343e b769 09bf 24c3 f03b f9e4 62bd
00000330: b2a4 77bd 9555 3f3e 7cc5 fcbc bd03 a73e
00000340: bcc7 cdbc 0e02 683e d0ba d5bc b827 4f3e
00000350: a572 8abe 0bd2 ddbe 2b2f 55be 2c8d adbd
00000360: c844 a63c 1172 713b 2b62 173e a9a3 49be
00000370: 7928 1e3f f145 3ebe 7a3b 233e e7ad 2abe
00000380: cecd 40bd 0dd6 523d 2fd4 64bd 71d4 a63d
00000390: 3311 1c3f 8952 02be 04e9 3dbb 928e eb3b
000003a0: eb9c 8abe 86ed 473e ef84 9cbe aa3e 043e
000003b0: 32fa 0d3f ff12 0fbe ddb2 203e b23a 16be
000003c0: 077a cbbd dc62 fd3d 936a 00be a038 a93d
000003d0: ab5b 1b3f 9643 97be 66ee 553e 8a80 7dbd
000003e0: d937 2dbe 9b9f ad3d b0d4 86be abad d13d
000003f0: 6a25 9fbe c441 16be 4425 a6bc 25e0 cd3e

sequential_4/dense_13/MatMul f4 [10, 20]
-0.12076269 0.57448596 0.21151197 -0.030988865 0.16442488 0.13571426 0.15488954 -0.7340008
0.1924296 -0.5727587 0.2313302 0.36055076 -0.3696194 -0.48608443 0.31667748 -0.230721
0.82519794 0.64505583 -0.25221178 -0.34493157 0.28308165 -0.53653616 -0.028181016 0.1489476
1.0351824 -0.2809504 0.26806676 0.33002034 0.63509893 0.029682085 -0.43167937 -0.43272144
-0.54033816 0.19174623 -1.100537 -0.39148995 -0.70480454 -0.6000103 0.6212578 -0.07982693
0.66303676 0.50440365 -0.08917569 0.051050123 0.01766443 0.08985752 -1.44358 0.94658273
0.15430169 0.58151764 0.8867726 0.23671012 -0.32443503 -0.13120961 0.47454935 0.109468736
0.2525171 -0.23343398 0.01570988 -0.2715281 -0.3338214 -0.07656472 0.79962164 -0.25016358
-0.039398152 0.03621917 -0.2093094 -0.43687752 0.64680636 -0.31801674 0.26174724 -0.15599425
0.04046087 0.43953142 0.24402739 0.2385283 0.1530549 -0.27155828 -0.99840736 0.5187043
0.022354543 0.04961458 0.51531035 0.29005274 0.42910257 0.77097917 -0.1291372 -0.0058456357
0.72403777 0.23137614 -0.3105371 0.36414498 0.67027885 0.23143859 -0.09860926 0.4607683
0.0017635806 -1.2512742 -0.4037218 0.72886956 0.6830042 0.5696977 0.0046029654 0.31088093
0.095356055 0.22685643 1.0665693 0.8487752 0.8033992 0.6712782 0.13627392 1.1074133
0.67010117 0.80281776 -0.2534874 0.6374308 0.51514304 -0.34560367 -0.0018734256 0.25692976
0.6840174 -0.5290086 -0.05731773 0.63809115 -0.2926535 -0.06078957 -0.25860652 -0.11778013
0.19111682 0.2916564 0.029118014 0.18114747 -0.29059654 -0.26554197 0.12036072 -0.14279361
0.42805418 0.1448249 1.8095186 0.3823548 -0.8121878 0.069637746 0.6133884 -0.6639315
0.6609075 0.61235857 -0.67338616 -0.7243098 -0.05603541 -0.73542696 -0.06080709 -0.63501984
0.028689515 -0.5564251 -0.014425725 0.078697205 0.06553044 0.5397225 0.34584895 0.06596075
0.2345687 0.6429161 -0.5573044 0.6019629 0.42465025 -0.35061768 0.5966568 0.47162744
-0.2541253 0.4256508 0.374255 0.38990092 -0.4264069 -0.024898922 -0.016134635 0.12439708
-0.8051314 0.14010718 1.0790893 -0.14341007 -0.3698177 -0.08625043 -0.73620325 -0.28383958
-0.24833098 0.33225918 -0.23697641 0.7707524 -0.067691125 0.3428025 0.7816308 0.054977972
0.17512465 0.48046035 -0.009705613 0.58798987 -0.17416386 0.8549869 -0.97174394 0.24098672
00000000: 6e52 f7bd 8311 133f 9896 583e 5cdc fdbc
00000010: ff5e 283e aef8 0a3e 5d9b 1e3e 7ae7 3bbf
00000020: 440c 453e 50a0 12bf d3e1 6c3e 1c9a b83e
00000030: c13e bdbe 0fe0 f8be 8d23 a23e 2042 6cbe
00000040: 2c40 533f 6122 253f e721 81be df9a b0be
00000050: 14f0 903e 6f5a 09bf e0db e6bc b885 183e
00000060: db80 843f bbd8 8fbe 0c40 893e 6df8 a83e
00000070: d895 223f d827 f33c 1405 ddbe aa8d ddbe
00000080: 9a53 0abf 2059 443e 65de 8cbf 5f71 c8be
00000090: 126e 34bf 469a 19bf c00a 1f3f 4d7c a3bd
000000a0: c7bc 293f 9920 013f bfa1 b6bd ef19 513d
000000b0: ffb4 903c 3807 b83d 3bc7 b8bf 3f53 723f
000000c0: 4301 1e3e 57de 143f 8703 633f 2364 723e
000000d0: 591c a6be d05b 06be 22f8 f23e 2531 e03d
000000e0: ec49 813e 5109 6fbe 02b2 803c bb05 8bbe
000000f0: a3ea aabe f7cd 9cbd 01b4 4c3f 7115 80be
00000100: f55f 21bd 8d5a 143d 3455 56be 69ae dfbe
00000110: 1a95 253f 17d3 a2be bc03 863e f5bc 1fbe
00000120: 4cba 253d 430a e13e 51e2 793e c340 743e
00000130: 6cba 1c3e b009 8bbe a097 7fbf cec9 043f
00000140: e020 b73c a838 4b3d 61eb 033f cb81 943e
00000150: 55b3 db3e e45e 453f 8b3c 04be bf8c bfbb
00000160: 8a5a 393f deed 6c3e b8fe 9ebe 3671 ba3e
00000170: 6597 2b3f 3dfe 6c3e a7f3 c9bd d3e9 eb3e
00000180: f227 e73a c129 a0bf a0b4 cebe 3297 3a3f
00000190: 5dd9 2e3f b5d7 113f 79d4 963b c92b 9f3e
000001a0: 094a c33d 0d4d 683e 5885 883f 5549 593f
000001b0: 92ab 4d3f e3d8 2b3f 648b 0b3e b8bf 8d3f
000001c0: c08b 2b3f 7785 4d3f 1ac9 81be aa2e 233f
000001d0: 6ae0 033f f7f2 b0be bb8d f5ba 4c8c 833e
000001e0: c41b 2f3f 1c6d 07bf ffc5 6abd f159 233f
000001f0: aed6 95be 7cfe 78bd 1368 84be b536 f1bd
00000200: 21b4 433e fd53 953e e788 ee3c b97e 393e
00000210: 12c9 94be 1ef5 87be ae7f f63d 7d38 12be
00000220: eb29 db3e fb4c 143e 4e9e e73f 02c4 c33e
00000230: 8aeb 4fbf 3c9e 8e3d 0607 1d3f 6af7 29bf
00000240: 3c31 293f 88c3 1c3f 0963 2cbf 5e6c 39bf
00000250: 6385 65bd f144 3cbf db10 79bd a990 22bf
00000260: 4606 eb3c e071 0ebf e059 6cbc 002c a13d
00000270: d334 863d 412b 0a3f 1d13 b13e 6e16 873d
00000280: c732 703e 2696 243f 80ab 0ebf 3e1a 1a3f
00000290: c26b d93e 2984 b3be 80be 183f 2779 f13e
000002a0: b61c 82be e7ee d93e 5a9e bf3e 18a1 c73e
000002b0: 0152 dabe d3f8 cbbc c82c 84bc e5c3 fe3d
000002c0: 171d 4ebf 4278 0f3e 991f 8a3f 17da 12be
000002d0: bf58 bdbe 11a4 b0bd d177 3cbf 6c53 91be
000002e0: 7a4a 7ebe e01d aa3e f2a9 72be 0750 453f
000002f0: a5a1 8abd cf83 af3e f518 483f 9530 613d
00000300: e053 333e e6fe f53e 4b04 1fbc 8186 163f
00000310: 0358 32be 6ce0 5a3f 36c4 78bf 39c5 763e

sequential_4/dense_14/MatMul f4 [5, 10]
0.73589724 0.37640867 0.7897033 -1.0201944 -0.7966903 0.67328525 0.5201764 -0.26398084
1.092438 -0.7526533 -0.53933126 -0.2874412 -0.101747066 0.3666919 1.0537319 0.9960991
-0.30754885 0.12587015 -0.42991376 -0.57559437 0.71601653 -1.4101021 -0.09951101 0.7021735
-0.33099684 -0.9003193 -1.3320669 1.0380517 -0.43786806 0.13652533 -0.41474965 -1.2123836
0.23952389 -0.68864197 -0.63191986 0.10945493 -1.2646285 -0.46408048 0.36749095 1.2939386
0.001836344 0.20324963 -1.941243 -0.4406457 -0.76460165 -2.015415 0.9093311 0.8898421
0.8240746 -0.76232105
00000000: c363 3c3f a3b8 c03e ff29 4a3f bb95 82bf
00000010: e5f3 4bbf 6c5c 2c3f 482a 053f 7f28 87be
00000020: 02d5 8b3f e3ad 40bf 9d11 0abf 7e2b 93be
00000030: c460 d0bd 0abf bb3e b0e0 863f 5a00 7f3f
00000040: 0b77 9dbe 1be4 003e a81d dcbe 275a 13bf
00000050: dc4c 373f 3a7e b4bf 6ecc cbbd a4c1 333f
00000060: 6b78 a9be 537b 66bf 2b81 aabf e1de 843f
00000070: 3e30 e0be 4ccd 0b3e 115a d4be 632f 9bbf
00000080: c045 753e d74a 30bf 80c5 21bf e829 e03d
00000090: 59df a1bf f59b edbe c627 bc3e c89f a53f
000000a0: 7bb1 f03a ac20 503e a77a f8bf 509c e1be
000000b0: efbc 43bf 8ffc 00c0 ecc9 683f b1cc 633f
000000c0: 8ef6 523f 7927 43bf
